iris_classifier_state.pt (torch, 2227 bytes, 4 tensors)

layer1.weight f4 [16, 4]
0	0x3ee0aed6	0.4388339
1	0xbf24f434	-0.64435124
2	0x3fcf7973	1.6208938
3	0x3f9ded7e	1.2338102
4	0xbe4955bf	-0.19661616
5	0x3c92fdfd	0.017943377
6	0xbff7b0a4	-1.9350781
7	0xbf962889	-1.173112
8	0x3d91f71b	0.0712721
9	0x3f46bd6e	0.77632797
10	0x3f7e0ec2	0.9924127
11	0x3f1a3041	0.6022988
12	0x3e21f2e2	0.15815309
13	0x3e8ab9f4	0.27094996
14	0x3fc81aeb	1.5633215
15	0x3f911346	1.1334007
16	0x3ebe361a	0.3715065
17	0xbf9420d9	-1.1572524
18	0x400ef2fe	2.233581
19	0x3f5dc32d	0.8662594
20	0x3ccf1f44	0.025283463
21	0xbe305bb3	-0.1722248
22	0x3fdb4195	1.7129389
23	0x3f580d0c	0.8439491
24	0x3f26f77d	0.6522139
25	0xbfcfeafb	-1.6243585
26	0x403374e2	2.804009
27	0x3f016290	0.5054102
28	0xbe87c341	-0.26516154
29	0x3f32f6d6	0.6990789
30	0xbfecc9a3	-1.8499035
31	0xbf7c4783	-0.9854662
32	0x3dbcfbe2	0.0922773
33	0x3eaea187	0.3410761
34	0xc01914aa	-2.3918862
35	0xbfa49a3b	-1.2859567
36	0x3e04110b	0.12897126
37	0x3fab6b30	1.3392086
38	0xbf7c8115	-0.98634464
39	0xbe95d3f9	-0.29263285
40	0x3f024a66	0.50894773
41	0xbfa50510	-1.289217
42	0x4009f7fd	2.155761
43	0x3f4d3d9c	0.80172133
44	0xbe054252	-0.1301358
45	0x3d90fc9c	0.070794314
46	0xc004dd64	-2.0760126
47	0xbf96b0a4	-1.1772656
48	0xbe1882b9	-0.14893617
49	0x3d9ddff8	0.07708734
50	0xc0119d96	-2.2752433
51	0xbfbec295	-1.4903132
52	0x3ed28d93	0.41123638
53	0xbfaa6189	-1.3311015
54	0x400cd1c7	2.2003038
55	0x3f58ea6f	0.8473272
56	0x3f51d4d0	0.8196535
57	0xbfff24ed	-1.9933144
58	0x4034e576	2.8265052
59	0x3e58c8d8	0.21170366
60	0x3e9620f6	0.29322022
61	0xbfa02a8d	-1.2512985
62	0x401d5713	2.4584396
63	0x3f3c847f	0.73639673

layer1.bias f4 [16]
0	0xbeb6757e	-0.35636514
1	0x3ed5c8e8	0.41754842
2	0xbca1ece4	-0.019766279
3	0xbe126640	-0.14296818
4	0xbe732b43	-0.23746972
5	0xbec54b8a	-0.38534194
6	0x3f203953	0.6258747
7	0x3ee6dbd9	0.45089605
8	0x3e8d8378	0.27639365
9	0xbd3de67b	-0.04636238
10	0xbca73283	-0.020409828
11	0x3ef3c9f8	0.47615027
12	0x3ed65a38	0.41865706
13	0x3ecad18d	0.39613
14	0xba32b940	-0.00068177655
15	0x3f2a151a	0.6643845

layer2.weight f4 [3, 16]
0	0xbf9e6a31	-1.2376157
1	0x3f60d310	0.87822056
2	0xbe218ae0	-0.15775633
3	0xbf136bd7	-0.57586426
4	0xbfbc64d9	-1.4718276
5	0xbf49d8b3	-0.7884628
6	0xbfce1918	-1.6101408
7	0x3fbc5d5b	1.471599
8	0x3f60efae	0.8786572
9	0x3f30a7d4	0.69006085
10	0xbf9abbb4	-1.2088532
11	0x3f4924ea	0.7857195
12	0x3f6a4c49	0.9152265
13	0xbf8c148e	-1.0943773
14	0xbfccca85	-1.5999304
15	0xbfdebd18	-1.7401457
16	0xbe452a44	-0.19254404
17	0x3e87bdaa	0.2651189
18	0xbebe4fdc	-0.37170303
19	0xbee66da2	-0.45005518
20	0x3dcc2969	0.09968836
21	0xbeca6489	-0.39529827
22	0x3e3a2038	0.18176353
23	0x3dc84758	0.09779233
24	0x3e15c64e	0.14626428
25	0xbe90ce55	-0.2828242
26	0x3e4c563d	0.19954772
27	0x3e8b8880	0.2725258
28	0x3f0d3af3	0.55168074
29	0xbcc97e22	-0.024596278
30	0x3e1d5a03	0.15366368
31	0x3db1fee5	0.086911954
32	0x3f63163f	0.8870582
33	0xbfadfdcc	-1.3593078
34	0x3eb1d08b	0.34729418
35	0x3f42265f	0.758398
36	0x3f5a2a47	0.8522076
37	0x3f35fa14	0.71084714
38	0x3e6a58b6	0.22885403
39	0xbfb5ef5d	-1.4213673
40	0xbfb8a66b	-1.4425787
41	0xbe474fb0	-0.19463992
42	0x3f3ecc13	0.7453014
43	0xbfaf79a8	-1.3709002
44	0xbf9554ec	-1.1666541
45	0x3e9e4298	0.30910182
46	0x3e14183c	0.1446237
47	0x3f0bd140	0.54616165

layer2.bias f4 [3]
0	0x3ecd1a82	0.40059286
1	0x3e00c12c	0.12573689
2	0xbe4e2759	-0.20132197
